weights/rnn/W.npy (npy, 80128 bytes, 1 tensors)

array f8 [100, 100]
00000000: a61e 2e0b 53c6 b7bf 0710 0f00 c490 ac3f
00000010: e103 24e5 f73e b13f 1fb0 3535 123d aa3f
00000020: 8a3f ac4d 4496 b5bf 723b bc45 605b b33f
00000030: cdec e7dd 7328 b93f 3352 8091 097c 64bf
00000040: c9c1 b6f0 e607 733f f635 9c87 9a9e b63f
00000050: 28a7 f87c a87a a1bf e5ff 500d 39bb b5bf
00000060: 198a 69a8 ad47 a63f 12db 2fef 8316 b3bf
00000070: e6e5 6a00 d6f7 aebf f156 c3ce 115f b13f
00000080: 6393 78ff c1cb a9bf fea8 97c3 9029 aabf
00000090: c8b6 7260 3606 b63f 10e8 4168 ec60 acbf
000000a0: 291d 51ae 4f73 a83f 5713 3be7 7587 b23f
000000b0: 844b b856 653a ac3f 42a8 a6f5 633e b13f
000000c0: 5cfa 5a16 ee64 aa3f 3383 a89a 8d07 a13f
000000d0: 800b 295e 0d7e b63f 5fb2 4180 8003 a63f
000000e0: 4d47 c95a 60a1 b93f d07c dc4c caf3 923f
000000f0: 166f aa70 394b b33f cc31 5f15 a67a b23f
00000100: d3bc 26e4 f2a4 b4bf 4484 e24d 2576 b73f
00000110: 6dfe c922 b305 81bf 46fe f848 853f a8bf
00000120: 4a7c 7916 d251 b53f 15a9 cd0a 2239 b3bf
00000130: 0905 e1ee e40d a8bf 1195 b63b 52e8 b4bf
00000140: b07e 306a c6da 95bf d07c 1e97 e438 90bf
00000150: 6e23 849a d78c 9c3f 6208 fa54 3cd9 9fbf
00000160: 25f1 ca0c 3115 8c3f 47f9 9206 ad71 b73f
00000170: 2c0f 10d3 51c8 b63f faaa 021d 506e b33f
00000180: a951 dedf 873c a93f 075b 97fc 6fcb b13f
00000190: a80a 9cf7 fdd8 b3bf 9499 371d 4053 a33f
000001a0: 0479 8bec d4f9 5d3f caa9 8e14 dd87 b9bf
000001b0: fc32 0222 f5b6 b3bf 27e5 535e 088b 7c3f
000001c0: 86a5 26d4 2fed 7dbf 849b 7b79 bd1a b9bf
000001d0: 365c 775e 83d9 9f3f c261 7af3 83e2 b63f
000001e0: c540 df7a 7a47 8b3f 2451 2215 8bd8 9bbf
000001f0: 820d 3fdf 0d3e b13f c04d 7722 bc49 aa3f
00000200: ec65 11c5 683f 543f 8ebb 158d efeb b43f
00000210: 1eb6 e733 aa32 ab3f bb82 55c1 4d81 a53f
00000220: 28d3 b63f a309 793f 00a6 ca91 87d7 b2bf
00000230: 3eb5 1ef4 ce3b a33f 9e11 43b9 0e25 b8bf
00000240: f24e da9a 99d6 a8bf f695 1e9d 4539 ad3f
00000250: 5228 717e b87c b43f 80a7 ff49 607c a8bf
00000260: 4f42 26d8 824c af3f ede4 25df 5872 b23f
00000270: 1e54 aff1 09d9 b6bf ce5d f596 c97a a13f
00000280: 0b45 0f1b 869e b5bf e38a f5e1 a500 a03f
00000290: 1a73 226e b5b8 b63f f35c 5679 d80c b3bf
000002a0: 101a 0b6b 739c 90bf 1251 39ad a74a 673f
000002b0: 7a54 a289 dfa8 a93f aa09 ab2b cfc0 7ebf
000002c0: 572a 3e37 6103 a33f f60f 39e0 d2f6 80bf
000002d0: e0f3 5202 6be1 943f a397 bcfb fef1 a93f
000002e0: 8c71 44c9 4fdf 88bf 0fc1 4c38 d7dd a23f
000002f0: f094 92fa 1e97 ad3f 6baf 3fa6 c6a5 a8bf
00000300: fa93 70a1 cc6b aabf c33d 11db d19e 703f
00000310: 2798 aed5 b016 b6bf 8809 a979 c73b b33f
00000320: e85d 07fd 7382 b33f 5b0b 02b2 ce37 aebf
00000330: 03ed a407 a89e ac3f 3b32 a8aa 9610 b6bf
00000340: 72e5 d1c8 cdc0 9fbf cbc0 9822 d42c acbf
00000350: 4884 94d5 bc84 acbf 4505 849b 8657 9bbf
00000360: f1b6 42cc cc00 743f 9d15 1823 8575 843f
00000370: 9acb 9d48 b653 a93f 2295 01f0 4d0b a5bf
00000380: bfd1 9dc2 dfeb b23f f058 4fe9 decb a03f
00000390: 2170 7be8 d04c a93f b73f bdd8 4365 b5bf
000003a0: 1532 ca8a bf5b b0bf b847 46fe b66c b43f
000003b0: 8ca2 ebd6 d7c6 25bf a486 0c1d 2b46 55bf
000003c0: 8ed4 9d4f 9808 8fbf 47bd 2d1f 7d32 a53f
000003d0: 68da f478 af41 9a3f fc1e 2856 4636 ab3f
000003e0: 7af8 444b bae0 b73f 10cc fe51 8153 b43f
000003f0: 33be 0560 3446 aebf a8e1 8470 eb8e aebf
00000400: 4cb6 5bf6 918d a53f b398 de69 d081 91bf
00000410: 1da7 0129 807a 8dbf c8eb d93e 4f70 ab3f
00000420: 52bc 9cec e5d8 b63f a9b7 172f 077e a9bf
00000430: bba2 8760 bd7d a83f d460 18c2 4f05 b8bf
00000440: 7b96 c648 ba0d a73f 5a87 ebaf 5240 b5bf
00000450: 840e 8169 e9c1 853f 0c9a 2a46 91ce 923f
00000460: 7291 b83d 4301 b6bf 345d ffe5 d9e9 6bbf
00000470: 4aeb 08b5 8a31 863f 2f90 1f3f 2086 963f
00000480: a280 8e1c 4c8a 9c3f a719 20bd f9db a3bf
00000490: 4989 39d0 c790 a03f b41d 15f6 a1e3 b33f
000004a0: 89ee e316 c46c 84bf 2120 ab8c 93cf 913f
000004b0: ced9 a622 c73f a4bf 1628 3f94 e475 823f
000004c0: 6076 7b99 2493 93bf 23bf 3d3f ce54 783f
000004d0: 0506 e99d d206 b3bf 897c c002 2cff b5bf
000004e0: 5bcc 8268 e8d0 a43f 4cec dca9 39c8 b63f
000004f0: d461 f136 2add b03f 2027 9f3e 670f 703f
00000500: ce02 c895 c5b3 9e3f eace d141 6221 70bf
00000510: 9c5b fd1f 38e6 af3f c03f 7350 f9d4 b2bf
00000520: 337d d0aa c4db a13f cc14 bc0a 7115 b13f
00000530: 14f9 72a5 cf11 b63f f030 f914 d65d 88bf
00000540: 40d8 df16 97a9 aebf d94b cf16 2971 893f
00000550: bbad b959 b4f2 acbf ac73 c7a2 919d 973f
00000560: 942d f785 aa12 b1bf abdb d2f8 c26b b6bf
00000570: 31e1 0e66 066e b53f dfab 60f0 daf8 b6bf
00000580: cd1d 6167 641c b33f 8785 36b9 35cf b23f
00000590: 9d00 37a4 b02b b0bf a0f8 7b18 9893 b63f
000005a0: e5f8 0705 7c17 85bf bfab 3489 4b35 a4bf
000005b0: 254a ec05 82c2 b2bf 8afb 1a11 de5b b9bf
000005c0: b12b cab6 daed b3bf baf7 33f6 b25a 8a3f
000005d0: 427e 487a e27d 91bf 90d1 c886 6135 b63f
000005e0: 097d 7f01 2d3b 7f3f a55a 63bc 867f b6bf
000005f0: 7ecf 8497 d678 b2bf 03ee 90c3 c7e4 94bf
00000600: 60e6 703e d8d0 b43f 6c10 b732 7c39 b9bf
00000610: de5a 4e85 aa30 983f 2d32 3d76 74ed a7bf
00000620: 61e8 dbbf 6cf3 b43f 8640 92cf f2b0 adbf
00000630: ef2d 45f2 40f9 a23f 4bfc c4d8 480b 743f
00000640: cd30 fb7f 916d a9bf e809 af76 30e1 9a3f
00000650: 53a6 9637 d2c2 b2bf 428f 4b21 713b b3bf
00000660: a330 d9ee f987 aa3f 1761 0df6 03e1 a5bf
00000670: 3557 542c 1011 b5bf c67c 0b12 3507 b9bf
00000680: 0fc0 07b8 9785 a33f bad9 4505 a844 b83f
00000690: 647d c335 1e4d a13f a05a 75e0 f5b1 b43f
000006a0: f9a9 cc26 fa51 8d3f 1afb 12c8 6a31 a23f
000006b0: c848 d7d9 9552 983f 1dea fa4d 06e3 95bf
000006c0: cc76 7c5d d57b 8fbf b0e5 5e08 9b4f 673f
000006d0: 0c9b d032 1343 b63f 2477 5a03 2530 b8bf
000006e0: d58f de6e ad6e a0bf 31ec 4bfd 58f3 9abf
000006f0: 4ca9 c0fa fcdf 8abf dcaf 17c5 392d ac3f
00000700: 1b41 2ce4 af3c b3bf 885d 9926 4f1c 903f
00000710: dbb5 31bc 3bc3 b73f 8711 b8f3 4c75 97bf
00000720: 0bab 944e e640 b2bf 18ec aa36 74a0 a43f
00000730: ae9c d502 6b9b 753f ed6a 9028 82fd b03f
00000740: f33d ce76 9fe5 a5bf fc8c c18a 364e aabf
00000750: a069 8b3d 4d4a 6fbf 6340 c1bf 7c4a 893f
00000760: 9db4 1ac6 30cf b6bf dfe8 9afa a95a a43f
00000770: ecc9 8e07 c489 a53f 9d01 17ab 22e7 ac3f
00000780: 3e53 e3dd f7d3 b83f 410c 3353 9e12 b63f
00000790: f5c0 bdcd 9f56 b93f 4721 3e3e d162 9fbf
000007a0: abba 4766 948e a53f 6e04 1bb9 b2ba b63f
000007b0: 2d00 c336 4ae8 933f 1e2f 86b4 6180 a0bf
000007c0: bfb8 8415 978c b53f f5df 03fa 171f a3bf
000007d0: e30d c1e0 8e0f b0bf 65a6 6bb9 838c af3f
000007e0: 0e79 b693 7114 b1bf ed54 4690 c6fe b3bf
000007f0: b87a 5be5 0574 b3bf d78c b86f acae aa3f
-0.09286994002297408 0.05579197407453767 0.06736707062010751 0.05124718570263575 -0.08432413955983811 0.07561303808709655 0.09827350776315598 -0.0025005518800844894
0.004646207914831676 0.08835759936138018 -0.03413893247154781 -0.08488804411990676 0.04351561241925967 -0.07456230725788895 -0.06048458819482132 0.06785689638067162
-0.050382673678803135 -0.051098369480159875 0.08603229384126643 -0.05542696736024777 0.04775475504771471 0.0723794641044838 0.05513302501289899 0.06735825297678935
0.05155128500836234 0.03326075089376559 0.08786090420566772 0.042995467811896 0.10011865822278061 0.018508110944023326 0.07536658287648054 0.07218397161268014
-0.08064191885090403 0.09164651061520696 -0.00831165265958519 -0.04735962405947851 0.08327973412222991 -0.07509053004983841 -0.04698100486758434 -0.08166994054643718
-0.021342373114861146 -0.01584202930791606 0.02788102036086875 -0.031102125822606637 0.013712294772056108 0.09157830629826434 0.08899413493059843 0.07590199192297212
0.049289938047113076 0.06951045910623686 -0.07752978606371619 0.03774452549605481 0.0018295840583771325 -0.0997293639362972 -0.07701046066558698 0.006968529404951774
-0.007306277113835141 -0.09806427207841578 0.031103184357416512 0.08939385122574264 0.013319928049810756 -0.027193234600944596 0.06735312176083677 0.051343802649764125
0.0012358210699602258 0.08172509378867529 0.053120917163919965 0.042002134180397964 0.006112706843329353 -0.07360122022023319 0.03756567697505851 -0.09431545279500717
-0.048512268212247536 0.05707757513964033 0.08002808653796592 -0.047823914559400826 0.0611306084493931 0.07205729911756338 -0.08924924994001102 0.03413991897349043
-0.08445013199458999 0.031254943688301194 0.08875593127090689 -0.07441475832307613 -0.01622181263771877 0.002843215459316658 0.05011652522186068 -0.007508095989296507
0.0371351604399776 -0.00828327891134249 0.020391151444289934 0.050674408177925366 -0.012144683198635396 0.036848760244881366 0.05779358681437852 -0.048139770311393125
-0.051603693682672216 0.004057712315514053 -0.0862837335285752 0.07513090820524415 0.0762093060251271 -0.059019526700487566 0.05589795201600547 -0.0861906210558993
-0.031008925802301808 -0.0550295154793062 -0.05570020777873502 -0.026701071969914798 0.00488357543160388 0.009989776738630602 0.049466797222428485 -0.0411018710590645
0.07391165257815312 0.03280541036626683 0.04941418493191941 -0.08357643167005234 -0.06389996660636428 0.07978385646700203 -0.0001661432720177113 -0.0012984677343372076
-0.015153112344459065 0.04140082364653579 0.02564119506606702 0.05314845849721725 0.0932728227389549 0.07939918758238229 -0.059129368516434154 -0.05968414066814215
0.04209571964552747 -0.01709676405121092 -0.01439380765096448 0.05359122888781759 0.08924710299173569 -0.049789642809499775 0.04783431819288838 -0.0938310479035665
0.045026608833080815 -0.08301274104044634 0.010623763591986142 0.018366117389314637 -0.08595676667079546 -0.0034074073628108884 0.010836681031937485 0.021996024945011235
0.0278713123731228 -0.038787655197711594 0.03235458771520656 0.07769214876053959 -0.00997307963233786 0.017393403492661833 -0.0395490865516198 0.009013925336962141
-0.019115993373694073 0.005940251972660157 -0.07432285647612254 -0.08592486445603432 0.04065634036796758 0.0889926948265593 0.0658747085702836 0.003920939730912371
0.029982650057720765 -0.003938087288691364 0.06230330839633 -0.07356222356906894 0.034879823542946296 0.06673342239453744 0.08620927609715451 -0.011897728457505669
-0.05988762048939167 0.012422867783163415 -0.056539188339992795 0.0230620151140674 -0.06669107218401954 -0.08758181166454786 0.08371009818700227 -0.08973472946733761
0.0746519806281107 0.07347427150536677 -0.06316665658141792 0.08818960759887995 -0.010298699286974198 -0.03946910905718636 -0.07328045506100318 -0.09905803601848909
-0.07784811937942383 0.012868307245749711 -0.01708177443845061 0.08675202885280542 0.007624793819530192 -0.08788339709586042 -0.07215634535969959 -0.02040397769108716
0.08131171726645325 -0.0985334037605427 0.02362314642558771 -0.04673351233813992 0.0818393677144811 -0.05799063476399717 0.037057904790881106 0.004893574292792978
-0.04966406523962661 0.02624965404880611 -0.07328523499622834 -0.07512576163167942 0.05181866684560645 -0.042732356820751764 -0.0822916134096346 -0.09776622477100991
0.038128606047280404 0.09479761246425414 0.03379148870748841 0.0808404610628295 0.014316515263620199 0.03553327266990021 0.023752538128811534 -0.02137384272530528
-0.015372912326309239 0.0028455760939009797 0.08696098318669615 -0.09448462802762642 -0.03209440210710538 -0.02631892248153295 -0.013122536089288282 0.05503254443087233
-0.07514476128222151 0.015732990961934173 0.09282277435860158 -0.022908403754642783 -0.07130278986430143 0.04028666655855079 0.005275171291351173 0.06636823168120616
-0.04276750874771187 -0.051377968252177525 -0.003819609508679281 0.012349104501623914 -0.08909897648364269 0.03975421127457123 0.0420666941858093 0.05645092333316202
0.0969843785017703 0.0862215951083707 0.09897803090075626 -0.030650395797722465 0.042103421674132356 0.08878628749063619 0.019440803139105057 -0.03222947434104938
0.08417648578026425 -0.03734660078947619 -0.0627373980251416 0.06161891592439587 -0.06671819549817234 -0.07810631773311956 -0.07598912095589128 0.0521139036539126
